…
    {
      "id": 88,
      "type": "easy showAnything",
      "pos": [
        -22,
        1301
      ],
      "size": {
        "0": 716.8633422851562,
        "1": 539.4473266601562
      },
      "flags": {},
      "order": 21,
      "mode": 0,
      "inputs": [
        {
          "name": "anything",
          "type": "*",
          "link": 224
        }
      ],
      "properties": {
        "Node name for S&R": "easy showAnything"
      },
      "widgets_values": [
        "net(\n  (layer): ModuleList(\n    (0): vgg_16(\n      (vgg16): VGG(\n        (features): Sequential(\n          (0): Conv2d(3, 64, kernel_size=(3, 3), stride=(1, 1), padding=(1, 1))\n          (1): ReLU(inplace=True)\n          (2): Conv2d(64, 64, kernel_size=(3, 3), stride=(1, 1), padding=(1, 1))\n          (3): ReLU(inplace=True)\n          (4): MaxPool2d(kernel_size=2, stride=2, padding=0, dilation=1, ceil_mode=False)\n          (5): Conv2d(64, 128, kernel_size=(3, 3), stride=(1, 1), padding=(1, 1))\n          (6): ReLU(inplace=True)\n          (7): Conv2d(128, 128, kernel_size=(3, 3), stride=(1, 1), padding=(1, 1))\n          (8): ReLU(inplace=True)\n          (9): MaxPool2d(kernel_size=2, stride=2, padding=0, dilation=1, ceil_mode=False)\n          (10): Conv2d(128, 256, kernel_size=(3, 3), stride=(1, 1), padding=(1, 1))\n          (11): ReLU(inplace=True)\n          (12): Conv2d(256, 256, kernel_size=(3, 3), stride=(1, 1), padding=(1, 1))\n          (13): ReLU(inplace=True)\n          (14): Conv2d(256, 256, kernel_size=(3, 3), stride=(1, 1), padding=(1, 1))\n          (15): ReLU(inplace=True)\n          (16): MaxPool2d(kernel_size=2, stride=2, padding=0, dilation=1, ceil_mode=False)\n          (17): Conv2d(256, 512, kernel_size=(3, 3), stride=(1, 1), padding=(1, 1))\n          (18): ReLU(inplace=True)\n          (19): Conv2d(512, 512, kernel_size=(3, 3), stride=(1, 1), padding=(1, 1))\n          (20): ReLU(inplace=True)\n          (21): Conv2d(512, 512, kernel_size=(3, 3), stride=(1, 1), padding=(1, 1))\n          (22): ReLU(inplace=True)\n          (23): MaxPool2d(kernel_size=2, stride=2, padding=0, dilation=1, ceil_mode=False)\n          (24): Conv2d(512, 512, kernel_size=(3, 3), stride=(1, 1), padding=(1, 1))\n          (25): ReLU(inplace=True)\n          (26): Conv2d(512, 512, kernel_size=(3, 3), stride=(1, 1), padding=(1, 1))\n          (27): ReLU(inplace=True)\n          (28): Conv2d(512, 512, kernel_size=(3, 3), stride=(1, 1), padding=(1, 1))\n          (29): ReLU(inplace=True)\n          (30): MaxPool2d(kernel_size=2, stride=2, padding=0, dilation=1, ceil_mode=False)\n        )\n        (avgpool): AdaptiveAvgPool2d(output_size=(7, 7))\n        (classifier): Sequential(\n          (0): Linear(in_features=25088, out_features=4096, bias=True)\n          (1): ReLU(inplace=True)\n          (2): Dropout(p=0.5, inplace=False)\n          (3): Linear(in_features=4096, out_features=4096, bias=True)\n          (4): ReLU(inplace=True)\n          (5): Dropout(p=0.5, inplace=False)\n          (6): Linear(in_features=4096, out_features=1000, bias=True)\n        )\n      )\n    )\n    (1): Conv2d(512, 640, kernel_size=(3, 3), stride=(1, 1), padding=(1, 1))\n    (2): ReLU()\n    (3): Conv2d(640, 320, kernel_size=(3, 3), stride=(1, 1), padding=(1, 1))\n    (4): ReLU()\n    (5): Conv2d(320, 250, kernel_size=(3, 3), stride=(1, 1), padding=(1, 1))\n    (6): AdaptiveAvgPool2d(output_size=[5, 5])\n    (7): view()\n    (8): Linear(in_features=6250, out_features=1280, bias=True)\n    (9): ReLU()\n    (10): Linear(in_features=1280, out_features=640, bias=True)\n    (11): ReLU()\n    (12): Linear(in_features=640, out_features=64, bias=True)\n    (13): ReLU()\n    (14): Linear(in_features=64, out_features=2, bias=True)\n    (15): Softmax(dim=-1)\n  )\n  (MSE): MSELoss()\n  (CEB): CrossEntropyLoss()\n  (BCE): BCELoss()\n)"
      ]
    },
    {
      "id": 105,
      "type": "pre_train_layer",
      "pos": [
        -1280,
        450
      ],
      "size": {
        "0": 315,
        "1": 150
      },
      "flags": {},
      "order": 0,
      "mode": 0,
      "inputs": [
…
