…
        "Node name for S&R": "create_training_task"
      },
      "widgets_values": [
        null,
        256
      ]
    },
    {
      "id": 88,
      "type": "easy showAnything",
      "pos": [
        48,
        1260
      ],
      "size": {
        "0": 716.8633422851562,
        "1": 539.4473266601562
      },
      "flags": {},
      "order": 30,
      "mode": 0,
      "inputs": [
        {
          "name": "anything",
          "type": "*",
          "link": 224
        }
      ],
      "properties": {
        "Node name for S&R": "easy showAnything"
      },
      "widgets_values": [
        "net(\n  (layer): ModuleList(\n    (0): Conv2d(3, 32, kernel_size=(3, 3), stride=(1, 1), padding=(1, 1))\n    (1): ReLU()\n    (2): BatchNorm2d([32], eps=1e-05, momentum=0.1, affine=True, track_running_stats=True)\n    (3): Conv2d(32, 32, kernel_size=(3, 3), stride=(1, 1), padding=(1, 1))\n    (4): ReLU()\n    (5): BatchNorm2d([32], eps=1e-05, momentum=0.1, affine=True, track_running_stats=True)\n    (6): MaxPool2d(kernel_size=[2, 2], stride=[2, 2], padding=0, dilation=1, ceil_mode=False)\n    (7): Conv2d(32, 16, kernel_size=(3, 3), stride=(1, 1), padding=(1, 1))\n    (8): ReLU()\n    (9): BatchNorm2d([16], eps=1e-05, momentum=0.1, affine=True, track_running_stats=True)\n    (10): MaxPool2d(kernel_size=[2, 2], stride=[2, 2], padding=0, dilation=1, ceil_mode=False)\n    (11): Conv2d(16, 8, kernel_size=(3, 3), stride=(1, 1), padding=(1, 1))\n    (12): AdaptiveAvgPool2d(output_size=[7, 7])\n    (13): view()\n    (14): Linear(in_features=392, out_features=256, bias=True)\n    (15): ReLU()\n    (16): Linear(in_features=256, out_features=128, bias=True)\n    (17): ReLU()\n    (18): Linear(in_features=128, out_features=64, bias=True)\n    (19): ReLU()\n    (20): Linear(in_features=64, out_features=2, bias=True)\n    (21): Softmax(dim=-1)\n  )\n  (loss): CrossEntropyLoss()\n)"
      ]
    },
    {
      "id": 135,
      "type": "easy showAnything",
      "pos": [
        1076,
        949
      ],
      "size": {
        "0": 360.59991455078125,
        "1": 76.00000762939453
      },
      "flags": {},
      "order": 33,
      "mode": 0,
      "inputs": [
        {
…
